animalclassifier.pth (torch, 209771 bytes, 26 tensors)

conv1.weight f4 [12, 3, 5, 5]
00000000: 3404 213e 777c c43d 917a 063e a4a1 9ebd
00000010: 043c 803d 1520 30be 08af a1be c882 3f3e
00000020: 0c88 a73e 4fe0 3c3e 2755 dfbd c8b8 cbbe
00000030: 1cd4 083e f356 003e eacd 953d 16fd 693d
00000040: e42f 753d 450c 0fbd f128 223c fbc0 423d
00000050: b88b c93d 9723 a73d d81e 793d e901 4f3e
00000060: bdc3 d63d 2064 3abe 8742 acbe 63e2 7fbe
00000070: e8a6 21be baa1 98bc f017 adbe d6c4 1abf
00000080: 81be d83d e331 403e 9172 5f3e fb7e 8ebe
00000090: c64b 16bf 76ae afbd a5ed a8bd aff5 aa3c
000000a0: ef23 b8bd f5e2 8cbe 9ee1 b6bc 3d33 39be
000000b0: 61f3 99bd 4a1d 22be 61b9 c7bd a834 d2bc
000000c0: 9d81 a53d 768c ab3d 83bd 1bbe c7b6 85be
000000d0: 5293 c1bc b718 673c 0e3a 293c f7ec 64be
000000e0: 73c5 c9be 1a66 8d3e 993f d83e dd91 c23e
000000f0: 3c5c 9ebd 59fd aabe 1fab 943e 047d 833e
00000100: 613f 0a3e 2ff6 293e bf46 5b3d 482a c53d
00000110: 6483 8e3e 3d09 173e c69a 1c3d 528d 283e
00000120: 3b50 763e f384 883e e071 fd3d c759 5b3e
00000130: 6354 993e f42a dd3d bfd3 013d a4e4 283d
00000140: 3f7c fe3a 90ce a13d 8f67 6c3e 552d dcbd
00000150: 8bc7 babd 23f8 36be eb39 0dbe 8a88 aa3e
00000160: 9edf ce3e ad05 f93d 67c8 223c 0824 f2be
00000170: 1cb1 18bc 9d78 0a3e f3c7 2d3e b28b a5bc
00000180: afcd 7ebe bb0a cbbe 57aa 37be 5b7e e13b
00000190: dd21 05be 8269 27be a587 c7bd 1044 043d
000001a0: 9a95 023e 57a9 95bd 0db5 27be f062 cf3d
000001b0: af93 01be fb41 a5bc ec81 72bd 9ffb 99bd
000001c0: 7edd a93e 7b98 bf3e de46 263e b174 8fbd
000001d0: 093b 0bbf f4c2 35be 3699 c83d 74d0 e0bb
000001e0: 97c8 d33a 37f6 9bbe f799 08bf cda4 b4be
000001f0: 3d07 e5bd c861 e33d d7e6 d03c 56fc 223c
00000200: 32b5 63bb d2e6 353d 99f8 a83d fb48 ce3d
00000210: 8119 523d 466e 07bd d171 a8bd b701 cd3d
00000220: 3ec0 b0bd 5048 e13e cd9f fa3e 93b0 823e
00000230: b653 b03d d7c0 b8be c3e0 3fbe 4039 963e
00000240: a7a5 2d3e 9bbe 2bbd 8145 8abe c2f5 8bbe
00000250: ffcf 16bb 1fe2 dd3d 7006 333e 5de7 063e
00000260: 7c72 31bc 2079 c8bd 399b 2a3e 3608 2e3e
00000270: 8c6f adbd 523e b93c c7b9 c3be c3c5 0b3e
00000280: 16af 99be 54af bfbe d258 393f 33c9 38be
00000290: 261a b13e cd5c 50be 33e4 cfbb 8762 013f
000002a0: 6a67 02bf 8d85 823d f2fe fb3d f58e 22bb
000002b0: b89b bbbd cecb cdbe bb8c 213e 06fb f3bc
000002c0: 0528 aabd 47c2 8cbb 099f 02be a457 633d
000002d0: 95a5 f13d e06c 7abe bcc9 9c3d 5fd8 a0be
000002e0: 46f7 ffbc a2d4 8cbe 0966 4bbe b290 263f
000002f0: 890f 313d ae51 ac3e e448 2abe 5c3f 5e3d
00000300: dc69 133f 1a8e 0abf e54b 913d b7c9 dc3d
00000310: 255f 2abd 8114 67bd 5143 f1be 61a9 a33c
00000320: 35fc d9bc 527a d83d aa0e b53c b195 b93d
00000330: 3b56 ca3c b314 8b39 826c 45be 2d41 843d
00000340: 01a7 9dbe 3c00 7dbd d502 86be 5856 18be
00000350: f39f 013f a7d6 1c3d f716 a43d 7364 9fbd
00000360: 3732 2b3c 00ab e53e d200 71be 79dd f33b
00000370: 7367 cd3d 93ee 853d a350 903d a36d 49be
00000380: 4257 4bbd 9c28 88be ba29 efbd d84e cb3c
00000390: d457 21bd 39b1 823d 507b 13bd 4844 893e
000003a0: 6229 ed3e fe11 cf3e 4fcb 343e 1cfd d63d
000003b0: 2861 483e 341c f53e 98a8 953e 62da 143d
000003c0: baaf 94bd f3cf 9d3d 5a6d b83d 2824 2e3e
000003d0: c370 5b3c 4e2a 05be c57b d7bd e82e 92bc
000003e0: de78 593d adb9 143d 5d56 c7be 2600 abbe
000003f0: 6d7d 44be 70a3 96bd e594 2fbe 3576 75be
0.1572426 0.09594052 0.13132693 -0.07745674 0.06261447 -0.17199738 -0.3157885 0.18702233
0.32720983 0.18444942 -0.109049134 -0.39789414 0.13362163 0.12533168 0.073146656 0.057126127
0.059860125 -0.03492381 0.0098974565 0.04754732 0.09841102 0.08161085 0.06082043 0.20215572
0.10486553 -0.18202257 -0.33644506 -0.24988703 -0.15786326 -0.018631805 -0.33807325 -0.604566
0.10583211 0.1876903 0.21821047 -0.27831253 -0.5870937 -0.08578198 -0.08248452 0.020869104
-0.08991229 -0.27516904 -0.02232438 -0.18085952 -0.07517124 -0.15831485 -0.09752155 -0.025659874
0.080813624 0.083764 -0.15209012 -0.2611601 -0.023629818 0.014105014 0.010328783 -0.2235602
-0.39408454 0.2761696 0.4223602 0.3800191 -0.07732436 -0.33396414 0.29036805 0.25681317
0.1350074 0.16597818 0.053534266 0.09627205 0.27834618 0.14749618 0.03823354 0.1646016
0.24054043 0.26663932 0.123752356 0.21420966 0.29947194 0.10799208 0.031696077 0.041233674
0.001941569 0.07900727 0.2308638 -0.10750834 -0.09120091 -0.17868094 -0.13791625 0.33307296
0.4040498 0.12159286 0.009935475 -0.47293115 -0.00931957 0.13522573 0.16970806 -0.020208213
-0.2488315 -0.39656624 -0.17936073 0.006881518 -0.13001199 -0.16348842 -0.09742669 0.032291472
0.12752381 -0.0730769 -0.16377659 0.10126293 -0.12653993 -0.020173064 -0.059205934 -0.07518696
0.33176798 0.3742102 0.16237971 -0.07004679 -0.54386955 -0.1775015 0.09794848 -0.006860787
0.0016157803 -0.30461285 -0.5335993 -0.35281983 -0.11183021 0.11102635 0.025500698 0.009947857
-0.0034745452 0.04440958 0.08250541 0.10072514 0.051293854 -0.03306415 -0.08224834 0.10010093
-0.08630417 0.44000483 0.48950043 0.2552534 0.086097166 -0.36084625 -0.18738084 0.29340553
0.16957723 -0.041929822 -0.27006152 -0.27335936 -0.002301216 0.10834145 0.17482924 0.13174196
-0.010830518 -0.09788728 0.16660775 0.1699532 -0.084685415 0.022612724 -0.38227674 0.13649659
-0.30016392 -0.37438452 0.72401154 -0.18045501 0.34590262 -0.203479 -0.006344342 0.50540966
-0.5093905 0.06373129 0.12304486 -0.0024804447 -0.0916056 -0.40194553 0.1577634 -0.029782783
-0.08308414 -0.0042956206 -0.1275598 0.055503502 0.117991604 -0.24455595 0.07655665 -0.31415078
-0.031245839 -0.27505976 -0.19863142 0.6506454 0.043227706 0.33656067 -0.16629368 0.054259643
0.57583404 -0.5412308 0.07094554 0.107806616 -0.041594643 -0.05641604 -0.4712167 0.019978227
-0.02660952 0.10570206 0.022101719 0.090617545 0.024699321 0.00026527568 -0.19279674 0.06457744
-0.30791476 -0.0617678 -0.26174036 -0.14876688 0.5063469 0.038290646 0.08012193 -0.07782831
0.010448984 0.44857025 -0.23535469 0.007442173 0.10029497 0.06539645 0.0704663 -0.1967073
-0.049643762 -0.26593482 -0.116778806 0.024817869 -0.0393904 0.06381459 -0.03600627 0.26809907
0.46320635 0.40443414 0.17655681 0.104974955 0.19568312 0.4787308 0.2923019 0.03634108
-0.0726008 0.07705679 0.09005232 0.1700598 0.013393584 -0.13004419 -0.10521654 -0.017844632
0.053093784 0.036309887 -0.38933077 -0.3339855 -0.19188471 -0.07355392 -0.17146643 -0.23970874

conv1.bias f4 [12]
00000000: 6768 02be 6b65 04be d466 fa3c 3fae eebd
00000010: 7502 68be 9094 cbbd ab14 e53d 25ab 5abe
00000020: edc5 673d 40b3 32bd 0353 94be f56f 8cbd
-0.12735139 -0.12929313 0.03056661 -0.116543286 -0.22657187 -0.099404454 0.11185583 -0.21354349
0.05658524 -0.043627977 -0.28969583 -0.068572916

bn1.weight f4 [12]
00000000: 01d8 213f bbe9 233f 1a1b 963f e6e9 043f
00000010: b7d1 493f 12f6 3e3f b7a3 1b3f a787 eb3e
00000020: 2f04 b23e bd5b 373f 17ac cf3e 76db d93e
0.6322022 0.6402852 1.1727021 0.519194 0.78835624 0.74594223 0.60796684 0.46001932
0.34768817 0.71624357 0.40560982 0.42550248

bn1.bias f4 [12]
00000000: f43d 523e 257c 243d c3b5 793f c916 a8be
00000010: 8b20 603f 34a9 0b3f 0bdb a4bd 6b9e 23bf
00000020: 18a6 4c3e 4c0e 953e 7a51 cabe bbfb 30bd
0.20531446 0.040157456 0.9754297 -0.32829884 0.87549657 0.5455506 -0.08049592 -0.639136
0.19985235 0.2911247 -0.39515287 -0.04320882

bn1.running_mean f4 [12]
00000000: 8a42 1abd 328c 26bc 5a0f eeba e91b 80bd
00000010: d02e 6c3c ce87 a93a 0eba b2be 152e 9cbe
00000020: 9ee2 0dbe 7c83 0b3d dc25 17be c346 b0bd
-0.037661113 -0.010165261 -0.0018162534 -0.062553234 0.014415458 0.001293415 -0.34907573 -0.30503908
-0.13855979 0.03406094 -0.14760536 -0.08607247

bn1.running_var f4 [12]
00000000: 15a3 0e3f c9ae ee3e aea1 153e 5e8d 653f
00000010: dec4 093e f164 723e 62d5 323f 761e c23f
00000020: 9fcf f43e 94ed 313e abde 0d3f 2aa8 5d3f
0.55717593 0.46617725 0.14612457 0.89668834 0.13454005 0.23671319 0.69856846 1.5165546
0.47814652 0.17375785 0.5541789 0.86584723

conv2.weight f4 [12, 12, 5, 5]
00000000: a066 833e 1fb4 d3bc 0b74 46be ea98 a4be
00000010: 880e 53be 26a0 8d3d 4b2a fbbd 9a08 15be
00000020: 90ec 19be 967a e8bd 32b8 dcbd 2c2c bb3c
00000030: d6c0 edbc 932c 8cbd 6939 1e3d 2025 24bd
00000040: 8bf6 a7bc ae36 3fbe db4b e93d 91ef 983e
00000050: 68df c5bd 01e7 afbd 81aa e83d f39a e03e
00000060: c1d6 973e 424e 9ebe 9f76 3cbe d0a6 5b3c
00000070: 139c 723d 5f17 eb3d 72de 71be 1dff 8fbd
00000080: 8623 ac3c 6a0b 0c3e 894d 113e 3391 1e3e
00000090: 6619 4dbd 1445 edbc 630f b43c 2cc5 013d
000000a0: d9d5 a1bd e132 1abe b538 f7bd b58a a1bd
000000b0: fe05 32be 690f bcbd 0943 963d b6ac 7fbc
000000c0: 51dc 91bd 4f8b aabe 5d74 f33c 7620 7cbe
000000d0: a634 a33e 0a36 753e 8141 2fbe 4626 b6bd
000000e0: b0c2 ac3e 16e0 003f fbb4 07bf 843e f6be
000000f0: 5019 7f3d ed3f a93e 188b efbe 8251 61bf
00000100: 3862 aa3e 006b 06be c2ef 94be 0a09 20bf
00000110: 2848 ae3e cefc 013f 5717 02be 58c7 29be
00000120: 4e13 e43d 98ff 853e 51c9 81be 59a1 47be
00000130: 6bf8 24be 4d59 80bd 43d3 87bd e8ac 03be
00000140: ad79 d93c e54a 983d 484d 2d3d 15b6 8abd
00000150: 52b9 0d3d f124 02bd 2f6b b33b 968f f1bd
00000160: 3b06 16bd db56 933d 41b9 77be 2768 1ebe
00000170: 6834 37be cf30 acbc 7ab3 663d 4e0c 62be
00000180: db96 3dbe 243b 4fbe 3550 11be 7bab 52bc
00000190: 102e cabd 18fa 353e 8e23 893a 5da2 8fbe
000001a0: ff28 cebb ded5 3f3e 973d 5a3e afab e3be
000001b0: 7078 46be f7bd 1b3e 5bde 8cbd 2b0e 46bf
000001c0: ebf5 f4be 6183 bd3e 5315 8c3e b3f0 07be
000001d0: 7e11 31be 0d71 063f 40bf fa3e a77d a2be
000001e0: 20a5 3f3c 98f5 dd3d 91db 5f3e c986 c3be
000001f0: 035b 75be 5127 263d c3f5 4cbe dd6a 26be
00000200: d471 ba3d 8afc 893d 7f6c 5ebe f3a1 13be
00000210: dc53 4f3e 2a3e 783e 5d8f 653d bd2d 263d
00000220: db54 dc3e 7677 b03e cc2f 5cbe 2af9 98be
00000230: 72e0 9c3e 9aa1 763e 013e b4be f8bb 00bf
00000240: 681a 2bbe ba97 aabc f6e0 4ebe 1fb1 b3be
00000250: 4f6b 173d 171a f2bc a671 d6bc 9aea 523d
00000260: 17d6 ab3c 67d3 7b3d e8a5 823d 5a04 0dbd
00000270: 95d0 2dbd 8eef d6bc 3714 8a3d a8e9 1a3d
00000280: 16d5 bdbd c9eb a03a fce4 113d bc5f 573b
00000290: aa36 fb3c 5655 b8bd 60d7 a4bd e9e9 19bd
000002a0: 3687 9abd 8718 2b3d f689 67be 8027 5abe
000002b0: 4e69 c5bd ca5b 9e3d e259 a03e 9088 a73e
000002c0: 84cc 773e 2095 303e 7597 293e bbfb 0a3e
000002d0: 5977 8b3e 4912 293e 324e f03d 8275 c43d
000002e0: fd24 fa3c 6f62 563e c416 133e fa46 c9bb
000002f0: b3f1 b9bd 8c4b 04be 876c 8d3d 2c22 c2bc
00000300: 804d 11be 2e35 66be 3dbe 64be ec87 aa3d
00000310: 8a0f 8abd f235 0abe 1bfc 28be da29 14bd
00000320: 56bc 03be eeb8 653c d2ee 773b f760 01bd
00000330: 518c edbc 3a9f 10be c38a a83d 0816 113d
00000340: 9bd2 a53d 4a23 5f3e 238d 1cbe 9e1c 1c3e
00000350: e9a1 7f3d 543c e23d fca6 363d 1a7a 973d
00000360: e256 773e f280 f13d af8f 973c 7f0d 95be
00000370: d35f f9bc 81cd ecbd a5aa 43be 85f9 22be
00000380: f8ee a3be 3dd1 3bbe 2654 a0bd d2e6 47bc
00000390: 09c2 5f3e 2ce7 503e f552 4abd 93be a73d
000003a0: 783b 863e c7fd 643e ff00 c53c 5e42 88bd
000003b0: 3aa1 cd3d 9b4c 7c3e 7da9 7e3d 1a8f 95bd
000003c0: ea32 0fbe ab1f 4e3e 7f9d e93d 94d9 5bbe
000003d0: 0171 0dbe 93c7 113d 0a54 fcb9 df5a 8cbe
000003e0: 377d a4be 309a 773d 59f2 6a3d 706f 5fbd
000003f0: b877 9a3d 26cb 8a3d 6be3 51bc a9a9 f2bd
0.25664234 -0.025842724 -0.19380204 -0.32147914 -0.20611012 0.069153115 -0.12263926 -0.14554062
-0.15031648 -0.113515064 -0.1077732 0.022848211 -0.029022615 -0.06844439 0.03862897 -0.040074468
-0.020503303 -0.18673202 0.113914214 0.29870275 -0.09661752 -0.085889824 0.11360646 0.43868217
0.29656032 -0.3091908 -0.18404625 0.01340647 0.059230875 0.11479067 -0.23620012 -0.07031081
0.021013033 0.13676229 0.14189734 0.15485077 -0.05007305 -0.028963603 0.021979993 0.03168218
-0.07902116 -0.15058471 -0.12071363 -0.078877844 -0.17385098 -0.09182627 0.07337005 -0.015605142
-0.071221 -0.3330941 0.029718572 -0.24621758 0.31876105 0.23946396 -0.17114832 -0.08894019
0.33742285 0.5034193 -0.5301053 -0.4809457 0.06228 0.33056584 -0.46785808 -0.88014996
0.3327806 -0.13126755 -0.2908917 -0.6251379 0.34039426 0.50776374 -0.12704216 -0.1657995
0.111364946 0.26171565 -0.25348905 -0.19495143 -0.16110389 -0.06267033 -0.06632092 -0.12858927
0.026547277 0.0743616 0.04231003 -0.06773011 0.034600563 -0.03177351 0.0054754238 -0.11794965
-0.036627036 0.07194301 -0.24191763 -0.15469418 -0.17891085 -0.021019368 0.056323506 -0.22075006
-0.18514578 -0.20237404 -0.14190753 -0.012858267 -0.09872067 0.17771184 0.0010462867 -0.2805356
-0.006291508 0.18733928 0.21312557 -0.44466922 -0.19381881 0.15209185 -0.068783484 -0.7736537
-0.4784387 0.37014297 0.2736002 -0.13275413 -0.17291829 0.5251625 0.48974037 -0.3173649
0.011697084 0.10837859 0.21861102 -0.3818877 -0.239605 0.04056484 -0.20015626 -0.16251703
0.09103742 0.06737621 -0.21721075 -0.14417247 0.20246834 0.24242464 0.056044925 0.040570963
0.4303349 0.3446614 -0.21502608 -0.29877597 0.30639988 0.24085084 -0.35203555 -0.5028682
-0.16709292 -0.020824302 -0.20203003 -0.3509607 0.03696757 -0.029553456 -0.026177239 0.051493265
0.02097611 0.061480906 0.063793 -0.034427978 -0.042435247 -0.026237275 0.06742137 0.03782049
-0.092691585 0.0012277301 0.035618767 0.0032863459 0.030665714 -0.090006515 -0.08048892 -0.03757659
-0.07545321 0.041771438 -0.22611222 -0.2130413 -0.09639226 0.07732351 0.31318575 0.32721376
0.2419911 0.17244387 0.16561683 0.1357259 0.27239493 0.16510881 0.117336646 0.09592725
0.030535216 0.20935987 0.14364153 -0.0061424943 -0.090793036 -0.12919444 0.069054656 -0.023697935
-0.1418972 -0.22481224 -0.22338195 0.08326706 -0.06741245 -0.13497141 -0.1650242 -0.036172725
-0.12864813 0.014021141 0.0037831557 -0.031586614 -0.028997572 -0.1412324 0.08229592 0.0354214
0.080968104 0.21790805 -0.15288214 0.15245292 0.06241027 0.11046663 0.044592842 0.07396336
0.24154237 0.117921725 0.01850113 -0.2911186 -0.0304412 -0.11562634 -0.19108064 -0.15915497
-0.32018256 -0.18341537 -0.0782855 -0.012201028 0.21851362 0.20400685 -0.04939552 0.08190646
0.26217246 0.22362433 0.024048327 -0.066532835 0.10040517 0.24638598 0.062173355 -0.07302685
-0.13984266 0.20129268 0.11406993 -0.21469718 -0.13812639 0.03559072 -0.000481278 -0.2741308
-0.3212678 0.06044978 0.057360027 -0.054549634 0.07542366 0.06777029 -0.012810568 -0.11848766

conv2.bias f4 [12]
00000000: 7652 d6bd 1451 bebd e91e 16be 550f b5bd
00000010: 53b2 fcbd a7db 2bbe 2400 d33d f0a5 50be
00000020: 620b efbd 51bc e0bd 94f3 33be 5b15 2bbd
-0.10464947 -0.09292808 -0.14660229 -0.08840815 -0.123387 -0.1678301 0.10302761 -0.203758
-0.11672093 -0.109734185 -0.17573386 -0.041768413

bn2.weight f4 [12]
00000000: c4ac 853f 064a 123f e4e9 403f cef2 383f
00000010: 6287 423f 5e7c 673f 41fd 4f3f e9a6 5c3f
00000020: d951 e73e 1a84 133f ea03 5f3f 1170 623f
1.0443349 0.571442 0.7535689 0.7224549 0.7598783 0.90424144 0.8124581 0.86192185
0.45179632 0.57623446 0.8711535 0.8845225

bn2.bias f4 [12]
00000000: a344 b6be 002b b2be d0f8 a2be c9ec 97be
00000010: 9e67 2cbe a220 babe 3ce1 9cbd e0ed d9be
00000020: e926 b8be 177e 97be 2da9 86be c2d0 9dbe
-0.3559924 -0.3479843 -0.31830454 -0.2967284 -0.16836402 -0.36353022 -0.076601475 -0.42564297
-0.35967186 -0.29588386 -0.26300946 -0.30823332

bn2.running_mean f4 [12]
00000000: afe3 7cbf 3851 c3bf f599 bcbf d445 3c3f
00000010: d82d a7bf 61a1 c2bf 4134 37be 5e3e 20c0
00000020: e803 0dc0 7d13 bfbf c4c4 72be f99a 24c0
-0.9878492 -1.5259161 -1.4734484 0.7354405 -1.3060865 -1.5205499 -0.17891027 -2.5038066
-2.2033634 -1.4927822 -0.23707873 -2.5719588

bn2.running_var f4 [12]
00000000: 4614 1541 04e8 9140 cfeb 5d41 e814 6841
00000010: 775b 6e41 f9de 0941 a236 0241 89de 4e41
00000020: 1364 d240 976c be40 77d8 0341 1044 0641
9.31745 4.559572 13.87007 14.505104 14.89733 8.616937 8.138338 12.92933
6.574716 5.9507556 8.240348 8.391617

conv4.weight f4 [24, 12, 5, 5]
00000000: 83ce dc3d 0c83 273e f5f5 423e fb2e c13d
00000010: 368c a9bd c11f 0a3e 64f0 6fbb 4ccb 883c
00000020: 2d72 76bc b91a acbd 2be3 12be 8d45 83be
00000030: 4f5a c7bd 4bd1 1a3e 1ea2 db3d 4f07 c9be
00000040: b13b 11be 4cda e63d 2ae8 873e 4cb7 313e
00000050: eac2 39bf 7957 cfbe 7f2e 05be 2976 18be
00000060: 7a5a 22be b50d 45bd d733 1e3e 4b16 b33d
00000070: c2b4 80bd b63a a73c b1e2 1b3d 79e4 d73d
00000080: efaa 1f3d 861a b3bc ad18 513c 2c89 cc3d
00000090: fb19 6f3d 1050 b53d 69a6 413e ad0f a53d
000000a0: 7ecb 823e e3a8 813e 8649 893e a7d3 8d3e
000000b0: 66a8 243e 0b2a d3bd eccf 31bd 7a4d a8bc
000000c0: a04e 63bd 443e 00be 9d14 063e 14bf 453d
000000d0: 98a1 4b3d d951 c73e 776b 863e fd97 40bc
000000e0: f60a 7fbe 1bde 053d 9cc8 a43e 76a1 813e
000000f0: 58bf cabc b2ec f4be 9130 35bd 3f6b 8d3e
00000100: a789 843e 7c55 0cbe c2c9 02bf fe9b 1a3d
00000110: 028b e03e 096d b13e f0dd 08bf 51d7 2dbf
00000120: a0c1 63be 3795 a23d 5e71 12bd 0a61 64bc
00000130: 8e2e 82bc 24d8 ce3d f5af 24be cfad 8ebe
00000140: 7034 95be 4446 73be 6d42 1cbe e4e8 8abe
00000150: d1c7 09bf 7250 07be aacc 1d3d 9e40 bbbd
00000160: d9f0 8dbe f604 f1be 341f 9d3d 456a eb3d
00000170: 8ce5 a1bd 1733 57be 4ee5 a9be 003b 4d3e
00000180: e0d5 9abd 5a18 05be 87d1 5dbe 995e b8be
00000190: b0f5 003e f4d6 703e 7beb 8d3d b7ac eabd
000001a0: 6983 6b3e 5029 ba3d e207 8b3d a861 043e
000001b0: 39a0 9bbd 4000 a3bc 553c 323e 2fd4 06bc
000001c0: 9596 3d3e 1451 503d 82ce f8bd c2d6 e93d
000001d0: a59f 3fbe 0ea9 d33d b005 313e 1911 f3bd
000001e0: fd7b 39bb 3325 81be 3b19 45be e16f 243d
000001f0: 0087 81be 0123 f3bd 47eb 863c 2389 07be
00000200: 6eb1 a8bd 02d3 b8bd 4735 0fbe 1771 54be
00000210: ba68 d83c 2c98 0ebc 52f2 13bd bd67 00be
00000220: a7e6 6bbe 8018 7c3e a06d 743e 7771 bd3a
00000230: fdbd 48be 73d4 47be b565 793e 1beb 823e
00000240: 5476 923d fc4a 83be fe67 dcbd 6cda f63d
00000250: d0c0 633e 252e 0d3e e975 8fbc 0644 843e
00000260: 1b9c 313e e86c 66bc 15c7 1fbe 5ab2 113d
00000270: ee88 283e 337b 99bd 5f3f 44be 7c2b b6bb
00000280: 1666 7d3e b282 f03d e2ba febd 27df f0bd
00000290: 425b aa3d 8803 283e 1a13 313d 2e5c c23d
000002a0: 4ce4 6c3e 9732 b53e c6f8 afbd 5e39 1abe
000002b0: 3165 c8ba 0a0f 873d 1a8e 913e 376d bbbb
000002c0: fe33 cb3c 721e 24bb aadf 343e 1c33 dcbd
000002d0: a8fb 21bd 65a6 803d eb1d 843c f39d 613e
000002e0: 6132 68bd 215a f43d 8333 f43d 4c4d 1a3e
000002f0: 563a 5d3e 0551 8bb9 3387 563d 0730 9d3e
00000300: 252a ae3e 233c 9b3e e01c 0f3e d609 d1be
00000310: 66e3 cb3c b1f6 863e 5efc 7f3d b7ef f63c
00000320: ced4 66bc bcc3 e2bd e7d6 6c3b ba04 2bbd
00000330: 85a1 abbe 087c 60bd d4eb b1bd 196b 653d
00000340: 1b6e b1bc 81b5 e0be 86ab 1bbd 68b9 483d
00000350: 6ee8 9a3d 0daf 4e3e 5ecf ebbd 3903 28be
00000360: 0403 b9bd fcb2 71bd baf5 db3c c795 54be
00000370: ec44 afbe 62f0 2dbe bb58 e5bd fe5b b2bd
00000380: 7318 c5be 732c 52be 3386 47bd db2e 463d
00000390: 5575 af3d ed25 1d3e b855 ecbd 3d2b 23be
000003a0: 81cb 69be da01 76be d7bc 963c 22ab 28bd
000003b0: 3de6 48bd 3bf8 5bbe 9f26 b7be 3bb7 4bbd
000003c0: eb73 033e e99f 0e3d d52d 21be 58c1 81be
000003d0: 098a 84be 8ba6 853d 0a76 373d 60c7 a63c
000003e0: c9ff 0f3d 635a 1abe 224d 18bd b86f b63c
000003f0: 799e 2a3d 4bec bb3d fbd4 9d3e adaf c2bc
0.107815765 0.16358584 0.19039138 0.09432789 -0.08278696 0.13488676 -0.003661179 0.016698502
-0.01504187 -0.084035344 -0.1434447 -0.25639 -0.09734022 0.15118901 0.10724281 -0.3926339
-0.14182927 0.112721056 0.26544315 0.17355078 -0.7256304 -0.40496424 -0.13006018 -0.14888825
-0.15854827 -0.048108775 0.15449463 0.087444864 -0.06284477 0.020413738 0.038057987 0.105416246
0.038981374 -0.021863233 0.012762231 0.09987101 0.058374386 0.08853161 0.18911137 0.080596305
0.25545877 0.25324163 0.26813906 0.2770054 0.16079864 -0.103107534 -0.04341118 -0.020544756
-0.055494905 -0.12523752 0.13093801 0.04827793 0.049714655 0.38929632 0.26253864 -0.011754987
-0.24906525 0.03268252 0.32184303 0.25318497 -0.024749443 -0.47836834 -0.04423577 0.27620885
0.2588627 -0.13704485 -0.5108911 0.037746422 0.43856055 0.346535 -0.5346365 -0.6790667
-0.22241831 0.07938617 -0.035752647 -0.013939152 -0.01589134 0.10099819 -0.16082747 -0.2786698
-0.2914157 -0.23757273 -0.15259714 -0.27130806 -0.5382052 -0.13214281 0.03852526 -0.09143184
-0.27722815 -0.47074097 0.07671967 0.11494879 -0.07905111 -0.21015583 -0.33182758 0.20042038
-0.07560325 -0.1299757 -0.2166196 -0.36009672 0.12593722 0.23519498 0.0692968 -0.11458724
0.22999348 0.09089911 0.06788613 0.12927878 -0.075989194 -0.01989758 0.17405827 -0.008229299
0.18514474 0.050858572 -0.12148763 0.11417915 -0.18713243 0.10334979 0.17287326 -0.118684955
-0.0028302663 -0.25223693 -0.19247906 0.04014576 -0.2529831 -0.11871911 0.01646961 -0.13235907
-0.08236967 -0.090246215 -0.13985167 -0.20746265 0.026417125 -0.008703273 -0.036119767 -0.12539573
-0.23037206 0.24618721 0.23869944 0.0014453371 -0.19603725 -0.19514637 0.24355204 0.25569996
0.071514755 -0.25643146 -0.107620224 0.120533794 0.22241521 0.13787134 -0.017512279 0.25833148
0.17344706 -0.014064051 -0.15603288 0.03557048 0.16458485 -0.074942015 -0.19164799 -0.005559383
0.24745974 0.11743678 -0.12437989 -0.11761313 0.08318187 0.16407597 0.043231107 0.09490238
0.23133963 0.3539016 -0.08592372 -0.15060946 -0.0015288946 0.06594665 0.28428727 -0.0057198065
0.024805065 -0.002504256 0.17663446 -0.10751936 -0.03954664 0.06281737 0.016127547 0.22032909
-0.05668867 0.11931253 0.119238876 0.15068549 0.21604285 -0.0002657251 0.05237503 0.30700704
0.3401653 0.30319318 0.13975859 -0.40827817 0.024888705 0.26360086 0.062496535 0.030143602
-0.0140888225 -0.110724896 0.0036138834 -0.041752554 -0.33521667 -0.054805785 -0.08687559 0.05601034
-0.021658948 -0.43888476 -0.038005374 0.049004942 0.07563864 0.20183964 -0.115141615 -0.1640748
-0.09033778 -0.059008583 0.02685057 -0.2076026 -0.3423227 -0.1698623 -0.111985646 -0.08708952
-0.38495216 -0.20524769 -0.048711967 0.04838453 0.08567301 0.15346499 -0.11539787 -0.15934463
-0.22831537 -0.24024144 0.018400593 -0.04117883 -0.049047697 -0.21481411 -0.35771653 -0.04973529
0.12837188 0.03482047 -0.1574014 -0.25342822 -0.25886562 0.06525906 0.044790305 0.020358741
0.035156045 -0.15073542 -0.037182935 0.022270069 0.041655038 0.09175929 0.30826554 -0.02376541

conv4.bias f4 [24]
00000000: e6b2 97bd 99d8 213d ef07 fbbd 1b11 f9bd
00000010: 59ea b33d 7be8 c4bd e08d 463d 81f7 523d
00000020: 6ae2 c83c b0c2 29bc 7f45 ee3d 5f26 68bd
00000030: 5b76 1bbe 6134 453c 1f30 8cbd 5ff9 313d
00000040: 9350 973d 1fb8 a53d 51fd f73d 9f65 98bd
00000050: 1ec7 88bd a991 843c 97a3 3a3d 90f7 49bd
-0.07407169 0.039513204 -0.122573726 -0.12161466 0.08784933 -0.09614655 0.048475146 0.05150557
0.024522025 -0.0103613585 0.11634349 -0.05667722 -0.15181868 0.012036414 -0.06845116 0.04345071
0.07388415 0.08091759 0.12108863 -0.07441258 -0.066786036 0.016182737 0.045566168 -0.04930836

bn4.weight f4 [24]
00000000: 4ccb 4a3f ce98 503f 26f4 0d3f 6ff3 523f
00000010: e932 203f d6d8 623f ca08 163f 9ef7 443f
00000020: 01d9 4f3f bc9c 393f f396 553f 10c5 713f
00000030: 9470 4f3f 8263 2a3f 7f3e 2e3f c729 493f
00000040: a752 1e3f d4c1 503f 79ce 373f 3b1c 193f
00000050: 3ed3 463f 2c7a 183f b79f 363f 8c44 3b3f
0.79216456 0.8148316 0.55450666 0.824027 0.6257768 0.88612115 0.5860716 0.76940334
0.81190497 0.7250478 0.83433455 0.9444132 0.81031156 0.66558087 0.6806411 0.7857937
0.6184487 0.8154576 0.7179943 0.598087 0.7766608 0.5956142 0.71337456 0.7315147

bn4.bias f4 [24]
00000000: 5c5b f6bd 18f7 64bd 02af a1be a26d 70bd
00000010: 709f 003d cd23 cabc 4121 1d3d ce7b 21be
00000020: ca1b c63d 94ca 93bc 2458 debd d4f2 2abe
00000030: 3163 5abe eee4 643d 8e14 12be 6b4e 92bd
00000040: 0633 eebd d2eb 653d 1658 143d 9e41 d5bd
00000050: 729e a0bd 4175 ca3c 7e19 0a3d 3e29 e6bd
-0.12029144 -0.05589971 -0.31578833 -0.058698304 0.03140205 -0.024675274 0.03836179 -0.15769884
0.09673269 -0.018040933 -0.10856655 -0.16694194 -0.21326901 0.055882387 -0.14265653 -0.07143863
-0.11630826 0.0561331 0.036216818 -0.10412906 -0.07842721 0.024714114 0.033715717 -0.11238335

bn4.running_mean f4 [24]
00000000: f2c7 69bf 18cf 97c0 7952 99bf 0877 b1c0
00000010: e102 9abf 1b15 45c0 f25e f53f 61df 06c0
00000020: ef23 8cbf 4b0f afbf 0bcc a0bf e6d3 c1c0
00000030: c801 cfbf 3b98 bbbf 833f 0440 53e5 2cc0
00000040: f564 433e 2210 40c0 d66b 3dbf 982f f0bf
00000050: e1b2 0dc0 4086 3040 4153 afbe 703c 74c0
-0.9132072 -4.74403 -1.1978294 -5.54578 -1.2032129 -3.0794132 1.91696 -2.107384
-1.0948466 -1.3676542 -1.2562269 -6.0571165 -1.6172419 -1.4655832 2.0663764 -2.7014968
0.19081481 -3.0009847 -0.7399267 -1.8764524 -2.214043 2.758194 -0.34243205 -3.8161888

bn4.running_var f4 [24]
00000000: 24cb c940 1c3b 1441 d6c9 9840 28fb 2141
00000010: 617d c540 d906 2941 92dd 9e40 e658 d640
00000020: ad5e 9040 82e2 b840 129a 9f40 dd0a 4141
00000030: 66f6 c740 484a fc40 ca9a b440 aec7 ef40
00000040: a090 a640 6b5a c340 3636 cc40 a53e ca40
00000050: 46b5 be40 1357 bb40 bfdb a440 22aa fa40
6.3060474 9.264431 4.774638 10.123817 6.171555 10.564172 4.964547 6.698352
4.511557 5.77765 4.9875574 12.065152 6.248828 7.8840675 5.643895 7.493125
5.2051544 6.1047873 6.3816175 6.320147 5.959628 5.854379 5.1518245 7.833268

conv5.weight f4 [24, 24, 5, 5]
00000000: 306d 1cbc c25b 3f3e 347a ce3d d741 5d3e
00000010: b230 f93d 2338 cfbc a94e 143e 477a 323c
00000020: b416 413e 118b a7bd 123d 62bd 9ddf 25bd
00000030: 748c 32be a5e8 abbc 8ff3 06be 105c 983d
00000040: cac0 b6bd 86e0 bcbe 6b97 d0be 0b17 b5be
00000050: a74f aebc db16 6b3d 597b 81bc cfbf f13c
00000060: 6c10 6b3d 4aa3 1bbe b4f1 56be cbaf 54be
00000070: c21c 70be 34af abbe 201c bdbd a58f debd
00000080: 5cdc 143d 8354 113e 069f 2d3e b431 06be
00000090: 579d 11be 4f14 b5bc bd7c 5d3e 60ca d23e
000000a0: d9be c5bd 30ab d83d 1576 863e 00b3 f93e
000000b0: ee1e 033f 6174 063e 2bae 543e f969 733e
000000c0: 2aa5 903e 4f8e 843e 55c5 113e 1cba 32be
000000d0: 877b 18be 858e 063e 5087 853e 971c a43d
000000e0: f5f8 81be 3d50 babe 19d3 52be ef2b 8fbd
000000f0: 1f1f 4e3d e1a3 323c 3d1f 17bd 20b1 233b
00000100: 29a5 a2bd f9ff 3cbe 92b7 4abd 3d18 65bd
00000110: 4d93 a4bd 2c88 1cbe f025 92be 7c05 48be
00000120: ab46 06be 9b8c 31bd cd44 4bbe f087 67bd
00000130: e697 85bd 6e2c 26be 3555 92be 92c7 34be
00000140: 822b 393c 623d 2b3e c569 e93d 85f1 06be
00000150: 052a 0fbe fecc 2ebe b10a 813c 1bcb 23bd
00000160: d9aa 0fbe 0459 eebd f93b 11be c3ef 083c
00000170: 809c 33bd 6585 f3bd 7501 b7bd 071f b6bd
00000180: 91c2 923d eb71 5b3d 3929 1dbc 4854 03bb
00000190: ffeb b7bd 704d 75bc d9a1 c6bd 8aba c03d
000001a0: 04bb b83d 5416 35be d5ec a33d 3216 4a3c
000001b0: f813 353e 1c5f bf3d 36a5 acbe 78b9 69bd
000001c0: 977d ed3d ef91 923e 9676 4b3d d877 c8be
000001d0: fe11 d2bd 5db1 923e 1913 ae3e 09aa f83c
000001e0: e8a4 60be 51f9 26be 3a01 fa3d 6c28 563e
000001f0: 39a2 de3b f083 a23e fa98 8b3e 0d78 d5bc
00000200: b927 b5bd d550 aa3d 53a1 283e 9b53 543d
00000210: 8799 71be 1571 27be f192 ef3d 6d56 313d
00000220: c7bf 90bd 5947 89be 05e2 5dbe 152f af3d
00000230: bef0 a73c 13ae a4bc cf0f 6fbe d031 7abe
00000240: 70b8 df3c 1025 0c3e 3477 cb3d 566d e4bd
00000250: bdf1 35be 8f41 db3c ed3e 81be 9799 dcbd
00000260: 06ed 20bd ed0b 343d 5ff4 a03d 429f bebd
00000270: 361c 583d 37b8 813d b7a8 573e ccd5 003e
00000280: 2bfd e8bd 3bf3 3d3d c979 623e 23d9 923e
00000290: 93d4 983d f24a 113e 2c43 833e f5f5 983e
000002a0: ed5d 343e 1c14 07be 4362 a1bd 43cd aebd
000002b0: 15f1 0dbb 0066 03be eaf9 76be 3200 82be
000002c0: d971 48be 5c8c 5fbc c607 c0bd 72f5 14be
000002d0: b10d 14be 1ad5 24be 6132 f6bb 9509 0e3e
000002e0: 83e8 2d3e ae87 22bd 6d58 f9bc 4380 62bd
000002f0: b319 07bc a3d4 813c 2f8e 89bd 1a9b 8abd
00000300: c300 0bbe 46cf bcbd 46a5 a5bd db2a 823d
00000310: 3a6a 4d3c 89a4 a3bd 636b 91bd 5228 61bd
00000320: 85f5 e83c e480 dd3d dfec 143e a095 3f3e
00000330: 3993 0abe 528b 84be d025 79be 13d4 16bc
00000340: a029 503e d288 05be 1247 08be 8644 1e3e
00000350: 23ec 853e 6138 c63e 6b05 1bbe 0476 4abc
00000360: 121d 9f3e 0960 d73e 012f 733e e1c3 d6be
00000370: d36c c0be facb adbd 65c3 023b 10f4 4abe
00000380: 064e fbbe c308 e9bd ebad bebd 5cd5 a73d
00000390: fe9a d93c c090 c6bd 5ff3 50bd c033 4dbd
000003a0: 590e f53d 7979 0cbe 95c6 8abe 7b4c a1bd
000003b0: 63b5 033e 355b 303e 9180 61bd 3789 12be
000003c0: e57a cebd 4d30 47bd e100 28bd 124c d0bd
000003d0: 4b5f 18be 9f8a bebc 2289 21be 48ed 27be
000003e0: 494e 19be d309 bebd 9234 b1be 11c6 c6be
000003f0: f8db 90be b30d d4be abef 4fbe 94e3 56be
-0.009547517 0.18687347 0.10081902 0.21607147 0.12167491 -0.025295323 0.14483131 0.010893411
0.18856317 -0.08180822 -0.055234022 -0.040496457 -0.17436391 -0.020984957 -0.13178848 0.074394345
-0.0892349 -0.36890048 -0.40740523 -0.35369143 -0.021278216 0.057394844 -0.015805887 0.029510407
0.057388708 -0.15199009 -0.2099064 -0.20770185 -0.2344847 -0.33532107 -0.0923388 -0.10867242
0.036342964 0.14192395 0.16955194 -0.13104898 -0.14220177 -0.02210441 0.21629615 0.41170025
-0.09655542 0.105795264 0.26261964 0.4876938 0.5121907 0.13130333 0.20769565 0.23770894
0.2825101 0.25889823 0.14235432 -0.17453808 -0.14890872 0.13140304 0.26079798 0.080132656
-0.25385252 -0.36389342 -0.2058834 -0.069908015 0.05032265 0.01090333 -0.036895026 0.00249774
-0.07941658 -0.18457021 -0.049491473 -0.05593132 -0.08035908 -0.1528632 -0.2854457 -0.19533342
-0.13112895 -0.043346982 -0.19850464 -0.056526124 -0.06523113 -0.16227886 -0.28580633 -0.17654255
0.011301877 0.16722634 0.11397127 -0.1317807 -0.13980873 -0.17070386 0.015752168 -0.03998862
-0.14030017 -0.11638072 -0.14183034 0.008357945 -0.043850422 -0.11890677 -0.08935825 -0.08892637
0.07166017 0.053575438 -0.009592348 -0.002003925 -0.089805596 -0.014972076 -0.09698839 0.094105795
0.090200454 -0.17684299 0.080041565 0.012334393 0.17683399 0.093443125 -0.33719796 -0.057061642
0.1159622 0.28626963 0.04967364 -0.39153934 -0.10257338 0.28650942 0.33998945 0.030354517
-0.21937907 -0.16306044 0.12207265 0.20913857 0.006794241 0.31741285 0.2726515 -0.026058221
-0.08845467 0.08316199 0.1646779 0.051837545 -0.23593722 -0.16351731 0.11697949 0.043295313
-0.070678286 -0.26812246 -0.21668251 0.08553902 0.020500537 -0.020102536 -0.23345874 -0.24433064
0.027309626 0.13686013 0.099348456 -0.11153667 -0.17767997 0.02676466 -0.2524332 -0.107714824
-0.039288543 0.043956686 0.0785911 -0.0930772 0.05276128 0.06333964 0.21060453 0.12581557
-0.11376413 0.04637454 0.2211677 0.28681287 0.0746242 0.14188746 0.25637186 0.2987515
0.17613955 -0.13191265 -0.0788007 -0.08535244 -0.0021658589 -0.12831879 -0.24118772 -0.25390774
-0.1957468 -0.013644304 -0.09376483 -0.14546755 -0.14458348 -0.16096917 -0.00751333 0.13870843
0.16983227 -0.039680175 -0.030437673 -0.0552981 -0.008245873 0.015848463 -0.067165725 -0.067678645
-0.1357451 -0.09219222 -0.08088164 0.0635583 0.012537533 -0.07990367 -0.071005605 -0.054970093
0.028437385 0.108155996 0.14543484 0.18709421 -0.13532723 -0.25887543 -0.2433083 -0.009205836
0.20328379 -0.13040474 -0.13308361 0.15455827 0.2615672 0.3871489 -0.15138786 -0.012357239
0.31076866 0.42065457 0.237484 -0.4194632 -0.37583026 -0.08486171 0.001995289 -0.19819665
-0.49082965 -0.11378624 -0.09310516 0.08194992 0.026563164 -0.096955776 -0.051013347 -0.05009818
0.11965627 -0.13718213 -0.2710463 -0.078759156 0.12862162 0.17222293 -0.05505425 -0.14310156
-0.10082034 -0.048630048 -0.041016463 -0.10170759 -0.14880101 -0.023259459 -0.15774968 -0.1639911
-0.1497127 -0.092792176 -0.3461042 -0.38822988 -0.28292823 -0.41416702 -0.2030627 -0.20985252

conv5.bias f4 [24]
00000000: bf20 6e3d a43d 8a3c 61d6 e1bc 221a f3bb
00000010: 2985 4bbc 05b5 e5bc 54f8 0d3b 1569 4abd
00000020: 09a9 c6bd a715 af3c d464 bc3d b9d7 cfbc
00000030: 4c27 3e3d 418c 963c 5f4c c63d e0bb e83c
00000040: 52a9 9a3d 32c4 9bba b278 bd3d 096b 543d
00000050: ffaf 583c ef62 e43d 5f2b a0bd fa59 bfbc
0.058136698 0.016875096 -0.027568044 -0.0074188868 -0.012421885 -0.028040418 0.0021662908 -0.04941662
-0.0970021 0.02137263 0.09198919 -0.02537142 0.046424195 0.018377425 0.096825354 0.028409898
0.075518265 -0.0011884032 0.092515364 0.05185989 0.0132255545 0.111516826 -0.078207724 -0.023358334

bn5.weight f4 [24]
00000000: 49e1 eb3e 507f c43e d66d 053f 976b ba3e
00000010: 35e7 003f ec09 bd3e 286e a53e fdc7 bc3e
00000020: e915 ef3e b4c1 ac3e 58e8 c13e 7df3 ab3e
00000030: 7fa7 b13e 436d a53e 5577 923e 7dc1 e83e
00000040: 375e f53e bcb8 e23e 718e 903e 52b4 bb3e
00000050: f610 b33e e719 893e 1ba9 d63e 1ebe c93e
0.46070316 0.38378382 0.5212072 0.3641021 0.50352794 0.36921632 0.32310605 0.3687133
0.46696404 0.33741534 0.37872577 0.33584204 0.34698102 0.32309923 0.28606668 0.4546012
0.47923443 0.44281566 0.28233674 0.3666101 0.34973878 0.26777574 0.41925892 0.3940286

bn5.bias f4 [24]
00000000: 1608 bdbe 84a4 bbbe 8133 dbbe 9792 39be
00000010: 2a44 e6be 38e8 6fbe ad72 c3be d12b 93be
00000020: 9b56 0bbf 5d3d b6be 69a3 46be 4479 83be
00000030: eebb 96be ea3c acbe adc9 71be 132a bfbe
00000040: 47af a8be 8444 c2be 915b 82be ca16 92be
00000050: b78e 7dbe adc4 28be 36cb efbe bf59 c2be
-0.36920232 -0.36648953 -0.42812732 -0.18122326 -0.4497388 -0.23428428 -0.38173428 -0.28744367
-0.54429024 -0.3559369 -0.19398274 -0.25678456 -0.29440254 -0.33640224 -0.2361209 -0.37336788
-0.32946226 -0.37942898 -0.25460485 -0.28533012 -0.24761473 -0.16481276 -0.46834725 -0.37959096

bn5.running_mean f4 [24]
00000000: 3205 08c0 23bc 3bc0 52b3 60c0 2120 cfc0
00000010: 24d4 2dc0 50cb 95c0 41be 69c0 1a7b bbc0
00000020: 91da 76c0 00eb 06c0 b9ed 96c0 9adf e3c0
00000030: 4cd1 32c0 c26f bdc0 bc7b 3cc0 3096 63c0
00000040: 6c27 25c0 90d0 a3c0 b0f2 ffbf 5103 77c0
00000050: 86f5 90c0 7c97 9fbf 7f69 08c0 3b73 66c0
-2.125317 -2.933358 -3.5109448 -6.472672 -2.716073 -4.6810684 -3.6522372 -5.858777
-3.8570902 -2.1080933 -4.716519 -7.121045 -2.7940245 -5.9198923 -2.9450521 -3.5560417
-2.5805311 -5.1192093 -1.9995937 -3.8595774 -4.529971 -1.2468104 -2.131439 -3.600783

bn5.running_var f4 [24]
00000000: ecf9 8d41 d67b 5941 3661 6c41 e982 9141
00000010: b2ae 4b41 0861 9b41 bd3a 2241 d769 9841
00000020: cba2 1a41 fdde 3141 b5a0 4741 8b61 6441
00000030: 5a49 4441 c393 2c41 f72a 6441 f4de 5241
00000040: c8b4 5741 65a5 4141 8e1d 6841 0352 5741
00000050: 58c7 8641 6774 2141 6d73 3d41 7e69 8041
17.747032 13.592733 14.773733 18.188921 12.73015 19.422379 10.13934 19.05168
9.664744 11.1169405 12.476735 14.273814 12.267908 10.786075 14.260489 13.179432
13.481636 12.10288 14.5072155 13.457522 16.847336 10.090919 11.84068 16.05151

fc1.weight f4 [10, 2400]
00000000: 939f 95be 046c 3ebe 1552 81be 320b f1be
00000010: a574 61be b9fb 913d 6cf8 e1bd 18e5 49bd
00000020: 7f57 1b3d fe8c b2bd bc33 82be a427 58be
00000030: 330d c8be 5310 8ebe 811d a0bd 5e43 3f3d
00000040: 8414 07bd 3729 25bd d9d4 4f3d e5dc 02be
00000050: d4f6 a7be 84df 6ebe fc38 80be 0527 dcbd
00000060: da70 47be d540 4fbe 12be febd e683 c2bd
00000070: a085 ea3d 2560 89bd f360 babe 38a1 72be
00000080: 6cf1 0bbc 2910 04bd 7a26 f0bd 1877 123e
00000090: b873 843e d2ce d83d 606d f83d c989 cabd
000000a0: 9fdb b8be 0355 bebe 0f0b a9be 06ac 8cbd
000000b0: 0235 e43d a6d9 3f3e 953e 943d d274 a9bd
000000c0: a91b 803b 3993 3cbe 6a2b 61be 26bc c8bd
000000d0: 480a d1bd 3104 0abd fcb9 db3c 80b0 473e
000000e0: 2bcf b33c 1853 90bd 8ee2 31bd 48bb 14be
000000f0: 3287 5fbd 6701 46bc 5381 85bd fb1d 8bbd
00000100: 9be3 37be 9662 c63d e30a 603d a95f 05be
00000110: 4a1d c0bb 8843 e2bd 6c90 b6bd 9ace 94bd
00000120: 045c 1ebe dc81 82bd f988 02be cdc1 dcbb
00000130: af06 9e3c 45e8 22bd ccf4 203e fa4c 84bb
00000140: c489 8b3d 0d7d d33d b867 07bd 9a63 6f3d
00000150: 9d9b 343e e848 813d c8b1 143e 90f0 083d
00000160: 1633 8b3e f5e7 e23d ecf2 14bc d8d5 03bd
00000170: 4cc9 503d 4381 8ebd e65d e93c 5ce3 803d
00000180: 9934 4abd a402 2cbe 669e 9f3e 741c 6b3e
00000190: 210b e8bd 5d9b 83be c4a3 c1be 9580 2cbe
000001a0: e0e5 81be 97e7 95be 56b1 de3d 2ab9 77be
000001b0: 82f0 dcbd 5f0a 8ebe 0704 e7bc 2e3f d8bc
000001c0: b9ec 043d 9d6e 453d b90e 133e 67ff 5fbe
000001d0: e60e 28bd 8c6e 03be b5a0 993d 0c63 503e
000001e0: f89c 453a da3b cbbd 0a9b ecbd 05b6 4abe
000001f0: 990e 10be 89a9 62be 9a6d a0bc c815 c0bc
00000200: 3987 48bd 81cf 39be 7f35 f4bd 2c26 2fbd
00000210: 79c5 5fbe a6e4 9dbd 12c9 c2bd a9e9 4fbe
00000220: d063 06be ff70 16bd 2733 753d 7e47 21be
00000230: f116 78be dc7c ec3d 1acc 953d beed 513d
00000240: 1e08 0f3a 5a8f 24bd 7d9d abbd 31ab f3bd
00000250: cf5f f5bd dc1e 7bbe 9d3b 46be e29e 30be
00000260: 025a 81bc 25b1 41be 69f6 2ebe 2a47 833d
00000270: 427b d33d 12ef 4d3d 6f64 a03c c78a b1bd
00000280: 0afa ccbd 7869 e0bd 1127 17be c319 33be
00000290: c1e6 c2bb 6933 eb3d 8b8a 1d3d 0a7c 803d
000002a0: b734 3c3e ecc5 34be b42f dabe f329 07be
000002b0: e4eb 87bd 533d 16be 4208 34bd ef56 013e
000002c0: 6a37 2d3e 2aef 173d 4993 553d 4f50 60bd
000002d0: 63f0 02bf 4ad7 7fbe e8d6 83bd faa5 7fbe
000002e0: c668 76be 8168 0dbd cc3d 2b3e cd58 91bd
000002f0: fe1e 6fbd 22da 803e af99 4f3b 8564 9a3d
00000300: 6529 20be 8781 27be 161b ab3d 7056 6a3e
00000310: 4a33 873e e78e 243e ffed 913d 6bbd 403e
00000320: f905 7fbe dac1 5cbc ddc3 78bd 9963 58be
00000330: 823e 0fbe 303b 16be 012e 31bd bf00 f9bd
00000340: a725 9cbe ebc2 ebbe f690 32be 7709 87be
00000350: 6226 08be b7f0 20be 57f7 93be 8fde b6be
00000360: ec2a 37be cc64 06be 7508 f0bc d235 83bd
00000370: 8327 f23d 8e8c 88be c2ae 84be 6248 24be
00000380: 9c72 dbbc 7c34 a3bd b8b0 11bd 4888 04be
00000390: ceae efbd 1eb2 5fbd e0cc 88bc d079 b0be
000003a0: 72fb 90be b665 adbe d6d2 53be 2647 87be
000003b0: c0ce 83be 7390 95be 0d02 54be 78d9 b73d
000003c0: 6ac7 113e 3376 ebbd 7dbb 96bd d7a4 82be
000003d0: a41d c6be e1e3 92be 99f4 b1bd 52d3 03be
000003e0: 62a0 02be dc58 c83c 84ba 02be c1fe f0be
000003f0: b2fc 83be 0934 97be 27bc f1be 66ad c9be
-0.29223308 -0.18595892 -0.25257936 -0.47078854 -0.22017153 0.071280904 -0.11033711 -0.049290746
0.03792524 -0.087182984 -0.25430095 -0.21108872 -0.3907257 -0.2774683 -0.078181274 0.046695106
-0.03297855 -0.04032251 0.050740097 -0.12779577 -0.32805502 -0.23327452 -0.25043476 -0.1074963
-0.19476643 -0.20239575 -0.12438597 -0.09497814 0.11451268 -0.06707791 -0.3640209 -0.23694313
-0.008541446 -0.032241974 -0.11726089 0.14303243 0.25869536 0.10586323 0.121302366 -0.09889562
-0.36105058 -0.37174234 -0.3301625 -0.06868748 0.11142923 0.1873537 0.07238499 -0.08274235
0.0039095473 -0.18415536 -0.21989217 -0.098015115 -0.10207039 -0.033695403 0.026822083 0.19500923
0.021949371 -0.07047099 -0.04342895 -0.14524567 -0.05457229 -0.012085295 -0.06518807 -0.06792828
-0.17957918 0.096867725 0.054697882 -0.13024773 -0.0058628665 -0.11048037 -0.08914265 -0.072659686
-0.15464789 -0.06372425 -0.12747563 -0.00673697 0.019290296 -0.03977229 0.15718383 -0.0040374966
0.06813386 0.10326586 -0.0330579 0.058444597 0.17637487 0.06312734 0.14520943 0.033432543
0.27187413 0.110793985 -0.00909112 -0.03218636 0.05097322 -0.069582485 0.028487157 0.06293365
-0.049366567 -0.16797882 0.31175536 0.22960073 -0.11330248 -0.2570447 -0.37820256 -0.16845925
-0.25370693 -0.29278252 0.10873668 -0.24191728 -0.10788061 -0.27742288 -0.028200163 -0.026397314
0.03245232 0.048201192 0.14361085 -0.21874772 -0.041029833 -0.12835139 0.075013556 0.20350283
0.0007538344 -0.09923525 -0.11553009 -0.19795997 -0.14068069 -0.22134985 -0.019583512 -0.023447886
-0.048957083 -0.18145563 -0.11924266 -0.042761013 -0.21852674 -0.07709627 -0.09511007 -0.20303978
-0.13124013 -0.036728855 0.059863236 -0.15749928 -0.24227501 0.115472525 0.0731432 0.05125212
0.00054562266 -0.040175773 -0.08379648 -0.118978865 -0.11981165 -0.2452349 -0.19358678 -0.17248109
-0.01578999 -0.18915232 -0.17086186 0.06410058 0.10326244 0.050276823 0.01957914 -0.08669048
-0.10008629 -0.109576166 -0.14760996 -0.17490296 -0.005947918 0.11484415 0.038462203 0.062736586
0.18379484 -0.17653626 -0.4261452 -0.13199596 -0.066367894 -0.14671831 -0.043953188 0.12630819
0.1691567 0.03709332 0.052142415 -0.05476409 -0.5114805 -0.2498447 -0.064374745 -0.24965659
-0.24063405 -0.03452349 0.16722792 -0.070970155 -0.058379166 0.25166422 0.0031677296 0.07538704
-0.15640791 -0.16358005 0.083547756 0.22884536 0.26406318 0.16070138 0.07125472 0.18822257
-0.24904622 -0.013473952 -0.060733665 -0.21131743 -0.13988689 -0.14671016 -0.043256763 -0.121583454
-0.30497476 -0.46047148 -0.1743811 -0.2637441 -0.13295892 -0.15716825 -0.28899643 -0.35716674
-0.17887467 -0.13124388 -0.029300908 -0.0640675 0.118239425 -0.26669735 -0.2591458 -0.16043237
-0.026788048 -0.07968995 -0.035568923 -0.12942612 -0.11703263 -0.054613225 -0.016699255 -0.34467936
-0.28316838 -0.33866662 -0.20685896 -0.2642147 -0.25743675 -0.29211769 -0.20703907 0.08977026
0.14236227 -0.11497154 -0.07359979 -0.25516388 -0.3869449 -0.28689483 -0.086892314 -0.12873581
-0.12756494 0.024456434 -0.12766463 -0.47069362 -0.2577873 -0.29531887 -0.4721386 -0.39390105

fc1.bias f4 [10]
00000000: 08e3 853e 3230 c2be 8f24 cfbc 176b 583e
00000010: 76bf 733e 8578 7b3c 9961 39be b4d8 b438
00000020: 9ef8 a1bd 7f3c 83be
0.26149774 -0.37927395 -0.025285987 0.21134602 0.23803505 0.015348558 -0.18103637 8.623433e-05
-0.07908748 -0.25632092
